nohup: 忽略输入
logs will save in:  ./runs/exp1
----------------------------------------------------------------
        Layer (type)               Output Shape         Param #
================================================================
            Conv2d-1         [-1, 32, 112, 112]             864
       BatchNorm2d-2         [-1, 32, 112, 112]              64
              SiLU-3         [-1, 32, 112, 112]               0
            Conv2d-4         [-1, 32, 112, 112]             288
       BatchNorm2d-5         [-1, 32, 112, 112]              64
              SiLU-6         [-1, 32, 112, 112]               0
            Conv2d-7              [-1, 8, 1, 1]             264
              SiLU-8              [-1, 8, 1, 1]               0
            Conv2d-9             [-1, 32, 1, 1]             288
          Sigmoid-10             [-1, 32, 1, 1]               0
SqueezeExcitation-11         [-1, 32, 112, 112]               0
           Conv2d-12         [-1, 16, 112, 112]             512
      BatchNorm2d-13         [-1, 16, 112, 112]              32
         Identity-14         [-1, 16, 112, 112]               0
         Identity-15         [-1, 16, 112, 112]               0
 InvertedResidual-16         [-1, 16, 112, 112]               0
           Conv2d-17         [-1, 96, 112, 112]           1,536
      BatchNorm2d-18         [-1, 96, 112, 112]             192
             SiLU-19         [-1, 96, 112, 112]               0
           Conv2d-20           [-1, 96, 56, 56]             864
      BatchNorm2d-21           [-1, 96, 56, 56]             192
             SiLU-22           [-1, 96, 56, 56]               0
           Conv2d-23              [-1, 4, 1, 1]             388
             SiLU-24              [-1, 4, 1, 1]               0
           Conv2d-25             [-1, 96, 1, 1]             480
          Sigmoid-26             [-1, 96, 1, 1]               0
SqueezeExcitation-27           [-1, 96, 56, 56]               0
           Conv2d-28           [-1, 24, 56, 56]           2,304
      BatchNorm2d-29           [-1, 24, 56, 56]              48
         Identity-30           [-1, 24, 56, 56]               0
         Identity-31           [-1, 24, 56, 56]               0
 InvertedResidual-32           [-1, 24, 56, 56]               0
           Conv2d-33          [-1, 144, 56, 56]           3,456
      BatchNorm2d-34          [-1, 144, 56, 56]             288
             SiLU-35          [-1, 144, 56, 56]               0
           Conv2d-36          [-1, 144, 56, 56]           1,296
      BatchNorm2d-37          [-1, 144, 56, 56]             288
             SiLU-38          [-1, 144, 56, 56]               0
           Conv2d-39              [-1, 6, 1, 1]             870
             SiLU-40              [-1, 6, 1, 1]               0
           Conv2d-41            [-1, 144, 1, 1]           1,008
          Sigmoid-42            [-1, 144, 1, 1]               0
SqueezeExcitation-43          [-1, 144, 56, 56]               0
           Conv2d-44           [-1, 24, 56, 56]           3,456
      BatchNorm2d-45           [-1, 24, 56, 56]              48
         Identity-46           [-1, 24, 56, 56]               0
         DropPath-47           [-1, 24, 56, 56]               0
 InvertedResidual-48           [-1, 24, 56, 56]               0
           Conv2d-49          [-1, 144, 56, 56]           3,456
      BatchNorm2d-50          [-1, 144, 56, 56]             288
             SiLU-51          [-1, 144, 56, 56]               0
           Conv2d-52          [-1, 144, 28, 28]           3,600
      BatchNorm2d-53          [-1, 144, 28, 28]             288
             SiLU-54          [-1, 144, 28, 28]               0
           Conv2d-55              [-1, 6, 1, 1]             870
             SiLU-56              [-1, 6, 1, 1]               0
           Conv2d-57            [-1, 144, 1, 1]           1,008
          Sigmoid-58            [-1, 144, 1, 1]               0
SqueezeExcitation-59          [-1, 144, 28, 28]               0
           Conv2d-60           [-1, 40, 28, 28]           5,760
      BatchNorm2d-61           [-1, 40, 28, 28]              80
         Identity-62           [-1, 40, 28, 28]               0
         Identity-63           [-1, 40, 28, 28]               0
 InvertedResidual-64           [-1, 40, 28, 28]               0
           Conv2d-65          [-1, 240, 28, 28]           9,600
      BatchNorm2d-66          [-1, 240, 28, 28]             480
             SiLU-67          [-1, 240, 28, 28]               0
           Conv2d-68          [-1, 240, 28, 28]           6,000
      BatchNorm2d-69          [-1, 240, 28, 28]             480
             SiLU-70          [-1, 240, 28, 28]               0
           Conv2d-71             [-1, 10, 1, 1]           2,410
             SiLU-72             [-1, 10, 1, 1]               0
           Conv2d-73            [-1, 240, 1, 1]           2,640
          Sigmoid-74            [-1, 240, 1, 1]               0
SqueezeExcitation-75          [-1, 240, 28, 28]               0
           Conv2d-76           [-1, 40, 28, 28]           9,600
      BatchNorm2d-77           [-1, 40, 28, 28]              80
         Identity-78           [-1, 40, 28, 28]               0
         DropPath-79           [-1, 40, 28, 28]               0
 InvertedResidual-80           [-1, 40, 28, 28]               0
           Conv2d-81          [-1, 240, 28, 28]           9,600
      BatchNorm2d-82          [-1, 240, 28, 28]             480
             SiLU-83          [-1, 240, 28, 28]               0
           Conv2d-84          [-1, 240, 14, 14]           2,160
      BatchNorm2d-85          [-1, 240, 14, 14]             480
             SiLU-86          [-1, 240, 14, 14]               0
           Conv2d-87             [-1, 10, 1, 1]           2,410
             SiLU-88             [-1, 10, 1, 1]               0
           Conv2d-89            [-1, 240, 1, 1]           2,640
          Sigmoid-90            [-1, 240, 1, 1]               0
SqueezeExcitation-91          [-1, 240, 14, 14]               0
           Conv2d-92           [-1, 80, 14, 14]          19,200
      BatchNorm2d-93           [-1, 80, 14, 14]             160
         Identity-94           [-1, 80, 14, 14]               0
         Identity-95           [-1, 80, 14, 14]               0
 InvertedResidual-96           [-1, 80, 14, 14]               0
           Conv2d-97          [-1, 480, 14, 14]          38,400
      BatchNorm2d-98          [-1, 480, 14, 14]             960
             SiLU-99          [-1, 480, 14, 14]               0
          Conv2d-100          [-1, 480, 14, 14]           4,320
     BatchNorm2d-101          [-1, 480, 14, 14]             960
            SiLU-102          [-1, 480, 14, 14]               0
          Conv2d-103             [-1, 20, 1, 1]           9,620
            SiLU-104             [-1, 20, 1, 1]               0
          Conv2d-105            [-1, 480, 1, 1]          10,080
         Sigmoid-106            [-1, 480, 1, 1]               0
SqueezeExcitation-107          [-1, 480, 14, 14]               0
          Conv2d-108           [-1, 80, 14, 14]          38,400
     BatchNorm2d-109           [-1, 80, 14, 14]             160
        Identity-110           [-1, 80, 14, 14]               0
        DropPath-111           [-1, 80, 14, 14]               0
InvertedResidual-112           [-1, 80, 14, 14]               0
          Conv2d-113          [-1, 480, 14, 14]          38,400
     BatchNorm2d-114          [-1, 480, 14, 14]             960
            SiLU-115          [-1, 480, 14, 14]               0
          Conv2d-116          [-1, 480, 14, 14]           4,320
     BatchNorm2d-117          [-1, 480, 14, 14]             960
            SiLU-118          [-1, 480, 14, 14]               0
          Conv2d-119             [-1, 20, 1, 1]           9,620
            SiLU-120             [-1, 20, 1, 1]               0
          Conv2d-121            [-1, 480, 1, 1]          10,080
         Sigmoid-122            [-1, 480, 1, 1]               0
SqueezeExcitation-123          [-1, 480, 14, 14]               0
          Conv2d-124           [-1, 80, 14, 14]          38,400
     BatchNorm2d-125           [-1, 80, 14, 14]             160
        Identity-126           [-1, 80, 14, 14]               0
        DropPath-127           [-1, 80, 14, 14]               0
InvertedResidual-128           [-1, 80, 14, 14]               0
          Conv2d-129          [-1, 480, 14, 14]          38,400
     BatchNorm2d-130          [-1, 480, 14, 14]             960
            SiLU-131          [-1, 480, 14, 14]               0
          Conv2d-132          [-1, 480, 14, 14]          12,000
     BatchNorm2d-133          [-1, 480, 14, 14]             960
            SiLU-134          [-1, 480, 14, 14]               0
          Conv2d-135             [-1, 20, 1, 1]           9,620
            SiLU-136             [-1, 20, 1, 1]               0
          Conv2d-137            [-1, 480, 1, 1]          10,080
         Sigmoid-138            [-1, 480, 1, 1]               0
SqueezeExcitation-139          [-1, 480, 14, 14]               0
          Conv2d-140          [-1, 112, 14, 14]          53,760
     BatchNorm2d-141          [-1, 112, 14, 14]             224
        Identity-142          [-1, 112, 14, 14]               0
        Identity-143          [-1, 112, 14, 14]               0
InvertedResidual-144          [-1, 112, 14, 14]               0
          Conv2d-145          [-1, 672, 14, 14]          75,264
     BatchNorm2d-146          [-1, 672, 14, 14]           1,344
            SiLU-147          [-1, 672, 14, 14]               0
          Conv2d-148          [-1, 672, 14, 14]          16,800
     BatchNorm2d-149          [-1, 672, 14, 14]           1,344
            SiLU-150          [-1, 672, 14, 14]               0
          Conv2d-151             [-1, 28, 1, 1]          18,844
            SiLU-152             [-1, 28, 1, 1]               0
          Conv2d-153            [-1, 672, 1, 1]          19,488
         Sigmoid-154            [-1, 672, 1, 1]               0
SqueezeExcitation-155          [-1, 672, 14, 14]               0
          Conv2d-156          [-1, 112, 14, 14]          75,264
     BatchNorm2d-157          [-1, 112, 14, 14]             224
        Identity-158          [-1, 112, 14, 14]               0
        DropPath-159          [-1, 112, 14, 14]               0
InvertedResidual-160          [-1, 112, 14, 14]               0
          Conv2d-161          [-1, 672, 14, 14]          75,264
     BatchNorm2d-162          [-1, 672, 14, 14]           1,344
            SiLU-163          [-1, 672, 14, 14]               0
          Conv2d-164          [-1, 672, 14, 14]          16,800
     BatchNorm2d-165          [-1, 672, 14, 14]           1,344
            SiLU-166          [-1, 672, 14, 14]               0
          Conv2d-167             [-1, 28, 1, 1]          18,844
            SiLU-168             [-1, 28, 1, 1]               0
          Conv2d-169            [-1, 672, 1, 1]          19,488
         Sigmoid-170            [-1, 672, 1, 1]               0
SqueezeExcitation-171          [-1, 672, 14, 14]               0
          Conv2d-172          [-1, 112, 14, 14]          75,264
     BatchNorm2d-173          [-1, 112, 14, 14]             224
        Identity-174          [-1, 112, 14, 14]               0
        DropPath-175          [-1, 112, 14, 14]               0
InvertedResidual-176          [-1, 112, 14, 14]               0
          Conv2d-177          [-1, 672, 14, 14]          75,264
     BatchNorm2d-178          [-1, 672, 14, 14]           1,344
            SiLU-179          [-1, 672, 14, 14]               0
          Conv2d-180            [-1, 672, 7, 7]          16,800
     BatchNorm2d-181            [-1, 672, 7, 7]           1,344
            SiLU-182            [-1, 672, 7, 7]               0
          Conv2d-183             [-1, 28, 1, 1]          18,844
            SiLU-184             [-1, 28, 1, 1]               0
          Conv2d-185            [-1, 672, 1, 1]          19,488
         Sigmoid-186            [-1, 672, 1, 1]               0
SqueezeExcitation-187            [-1, 672, 7, 7]               0
          Conv2d-188            [-1, 192, 7, 7]         129,024
     BatchNorm2d-189            [-1, 192, 7, 7]             384
        Identity-190            [-1, 192, 7, 7]               0
        Identity-191            [-1, 192, 7, 7]               0
InvertedResidual-192            [-1, 192, 7, 7]               0
          Conv2d-193           [-1, 1152, 7, 7]         221,184
     BatchNorm2d-194           [-1, 1152, 7, 7]           2,304
            SiLU-195           [-1, 1152, 7, 7]               0
          Conv2d-196           [-1, 1152, 7, 7]          28,800
     BatchNorm2d-197           [-1, 1152, 7, 7]           2,304
            SiLU-198           [-1, 1152, 7, 7]               0
          Conv2d-199             [-1, 48, 1, 1]          55,344
            SiLU-200             [-1, 48, 1, 1]               0
          Conv2d-201           [-1, 1152, 1, 1]          56,448
         Sigmoid-202           [-1, 1152, 1, 1]               0
SqueezeExcitation-203           [-1, 1152, 7, 7]               0
          Conv2d-204            [-1, 192, 7, 7]         221,184
     BatchNorm2d-205            [-1, 192, 7, 7]             384
        Identity-206            [-1, 192, 7, 7]               0
        DropPath-207            [-1, 192, 7, 7]               0
InvertedResidual-208            [-1, 192, 7, 7]               0
          Conv2d-209           [-1, 1152, 7, 7]         221,184
     BatchNorm2d-210           [-1, 1152, 7, 7]           2,304
            SiLU-211           [-1, 1152, 7, 7]               0
          Conv2d-212           [-1, 1152, 7, 7]          28,800
     BatchNorm2d-213           [-1, 1152, 7, 7]           2,304
            SiLU-214           [-1, 1152, 7, 7]               0
          Conv2d-215             [-1, 48, 1, 1]          55,344
            SiLU-216             [-1, 48, 1, 1]               0
          Conv2d-217           [-1, 1152, 1, 1]          56,448
         Sigmoid-218           [-1, 1152, 1, 1]               0
SqueezeExcitation-219           [-1, 1152, 7, 7]               0
          Conv2d-220            [-1, 192, 7, 7]         221,184
     BatchNorm2d-221            [-1, 192, 7, 7]             384
        Identity-222            [-1, 192, 7, 7]               0
        DropPath-223            [-1, 192, 7, 7]               0
InvertedResidual-224            [-1, 192, 7, 7]               0
          Conv2d-225           [-1, 1152, 7, 7]         221,184
     BatchNorm2d-226           [-1, 1152, 7, 7]           2,304
            SiLU-227           [-1, 1152, 7, 7]               0
          Conv2d-228           [-1, 1152, 7, 7]          28,800
     BatchNorm2d-229           [-1, 1152, 7, 7]           2,304
            SiLU-230           [-1, 1152, 7, 7]               0
          Conv2d-231             [-1, 48, 1, 1]          55,344
            SiLU-232             [-1, 48, 1, 1]               0
          Conv2d-233           [-1, 1152, 1, 1]          56,448
         Sigmoid-234           [-1, 1152, 1, 1]               0
SqueezeExcitation-235           [-1, 1152, 7, 7]               0
          Conv2d-236            [-1, 192, 7, 7]         221,184
     BatchNorm2d-237            [-1, 192, 7, 7]             384
        Identity-238            [-1, 192, 7, 7]               0
        DropPath-239            [-1, 192, 7, 7]               0
InvertedResidual-240            [-1, 192, 7, 7]               0
          Conv2d-241           [-1, 1152, 7, 7]         221,184
     BatchNorm2d-242           [-1, 1152, 7, 7]           2,304
            SiLU-243           [-1, 1152, 7, 7]               0
          Conv2d-244           [-1, 1152, 7, 7]          10,368
     BatchNorm2d-245           [-1, 1152, 7, 7]           2,304
            SiLU-246           [-1, 1152, 7, 7]               0
          Conv2d-247             [-1, 48, 1, 1]          55,344
            SiLU-248             [-1, 48, 1, 1]               0
          Conv2d-249           [-1, 1152, 1, 1]          56,448
         Sigmoid-250           [-1, 1152, 1, 1]               0
SqueezeExcitation-251           [-1, 1152, 7, 7]               0
          Conv2d-252            [-1, 320, 7, 7]         368,640
     BatchNorm2d-253            [-1, 320, 7, 7]             640
        Identity-254            [-1, 320, 7, 7]               0
        Identity-255            [-1, 320, 7, 7]               0
InvertedResidual-256            [-1, 320, 7, 7]               0
          Conv2d-257           [-1, 1280, 7, 7]         409,600
     BatchNorm2d-258           [-1, 1280, 7, 7]           2,560
            SiLU-259           [-1, 1280, 7, 7]               0
AdaptiveAvgPool2d-260           [-1, 1280, 1, 1]               0
         Dropout-261                 [-1, 1280]               0
          Linear-262                  [-1, 100]         128,100
    EfficientNet-263                  [-1, 100]               0
================================================================
Total params: 4,135,648
Trainable params: 4,135,648
Non-trainable params: 0
----------------------------------------------------------------
Input size (MB): 0.57
Forward/backward pass size (MB): 180.83
Params size (MB): 15.78
Estimated Total Size (MB): 197.18
----------------------------------------------------------------
train on: [device(type='cuda', index=0)]
…
